…
  X = Conv2D(64,(2,2),strides=(1,1),padding='valid',activation='relu')(X)
  
  X = Concatenate()([X2,X])
  X = Conv2D(5,(21,21),strides=(1,1),padding='valid')(X)
  X = Activation('softmax')(X)
  
  model = Model(inputs = X_input, outputs = X)
  return model 
In [13]:
m0 = two_pathcnn((33,33,4))
m0.summary()
__________________________________________________________________________________________________
Layer (type)                    Output Shape         Param #     Connected to                     
==================================================================================================
input_1 (InputLayer)            (None, 33, 33, 4)    0                                            
__________________________________________________________________________________________________
conv2d_1 (Conv2D)               (None, 27, 27, 64)   12608       input_1[0][0]                    
__________________________________________________________________________________________________
conv2d_2 (Conv2D)               (None, 27, 27, 64)   12608       input_1[0][0]                    
__________________________________________________________________________________________________
batch_normalization_1 (BatchNor (None, 27, 27, 64)   256         conv2d_1[0][0]                   
__________________________________________________________________________________________________
batch_normalization_2 (BatchNor (None, 27, 27, 64)   256         conv2d_2[0][0]                   
__________________________________________________________________________________________________
maximum_1 (Maximum)             (None, 27, 27, 64)   0           batch_normalization_1[0][0]      
                                                                 batch_normalization_2[0][0]      
__________________________________________________________________________________________________
conv2d_3 (Conv2D)               (None, 24, 24, 64)   65600       maximum_1[0][0]                  
__________________________________________________________________________________________________
conv2d_6 (Conv2D)               (None, 22, 22, 64)   36928       conv2d_3[0][0]                   
__________________________________________________________________________________________________
conv2d_7 (Conv2D)               (None, 22, 22, 64)   36928       conv2d_3[0][0]                   
__________________________________________________________________________________________________
conv2d_4 (Conv2D)               (None, 21, 21, 160)  108320      input_1[0][0]                    
__________________________________________________________________________________________________
conv2d_5 (Conv2D)               (None, 21, 21, 160)  108320      input_1[0][0]                    
__________________________________________________________________________________________________
batch_normalization_5 (BatchNor (None, 22, 22, 64)   256         conv2d_6[0][0]                   
__________________________________________________________________________________________________
batch_normalization_6 (BatchNor (None, 22, 22, 64)   256         conv2d_7[0][0]                   
__________________________________________________________________________________________________
batch_normalization_3 (BatchNor (None, 21, 21, 160)  640         conv2d_4[0][0]                   
__________________________________________________________________________________________________
batch_normalization_4 (BatchNor (None, 21, 21, 160)  640         conv2d_5[0][0]                   
__________________________________________________________________________________________________
maximum_3 (Maximum)             (None, 22, 22, 64)   0           batch_normalization_5[0][0]      
                                                                 batch_normalization_6[0][0]      
__________________________________________________________________________________________________
maximum_2 (Maximum)             (None, 21, 21, 160)  0           batch_normalization_3[0][0]      
                                                                 batch_normalization_4[0][0]      
__________________________________________________________________________________________________
conv2d_8 (Conv2D)               (None, 21, 21, 64)   16448       maximum_3[0][0]                  
__________________________________________________________________________________________________
concatenate_1 (Concatenate)     (None, 21, 21, 224)  0           maximum_2[0][0]                  
                                                                 conv2d_8[0][0]                   
__________________________________________________________________________________________________
conv2d_9 (Conv2D)               (None, 1, 1, 5)      493925      concatenate_1[0][0]              
__________________________________________________________________________________________________
activation_1 (Activation)       (None, 1, 1, 5)      0           conv2d_9[0][0]                   
==================================================================================================
Total params: 893,989
Trainable params: 892,837
Non-trainable params: 1,152
__________________________________________________________________________________________________
In [40]:
m1 = MFCcascade((53,53,4),(33,33,4))
m1.summary()
__________________________________________________________________________________________________
Layer (type)                    Output Shape         Param #     Connected to                     
==================================================================================================
input_1 (InputLayer)            (None, 53, 53, 4)    0                                            
__________________________________________________________________________________________________
conv2d_1 (Conv2D)               (None, 47, 47, 64)   12608       input_1[0][0]                    
__________________________________________________________________________________________________
conv2d_2 (Conv2D)               (None, 47, 47, 64)   12608       input_1[0][0]                    
__________________________________________________________________________________________________
batch_normalization_1 (BatchNor (None, 47, 47, 64)   256         conv2d_1[0][0]                   
__________________________________________________________________________________________________
batch_normalization_2 (BatchNor (None, 47, 47, 64)   256         conv2d_2[0][0]                   
__________________________________________________________________________________________________
input_2 (InputLayer)            (None, 33, 33, 4)    0                                            
__________________________________________________________________________________________________
maximum_1 (Maximum)             (None, 47, 47, 64)   0           batch_normalization_1[0][0]      
                                                                 batch_normalization_2[0][0]      
__________________________________________________________________________________________________
conv2d_10 (Conv2D)              (None, 27, 27, 64)   12608       input_2[0][0]                    
__________________________________________________________________________________________________
conv2d_11 (Conv2D)              (None, 27, 27, 64)   12608       input_2[0][0]                    
__________________________________________________________________________________________________
conv2d_3 (Conv2D)               (None, 44, 44, 64)   65600       maximum_1[0][0]                  
__________________________________________________________________________________________________
batch_normalization_8 (BatchNor (None, 27, 27, 64)   256         conv2d_10[0][0]                  
__________________________________________________________________________________________________
batch_normalization_9 (BatchNor (None, 27, 27, 64)   256         conv2d_11[0][0]                  
__________________________________________________________________________________________________
conv2d_6 (Conv2D)               (None, 42, 42, 64)   36928       conv2d_3[0][0]                   
__________________________________________________________________________________________________
conv2d_7 (Conv2D)               (None, 42, 42, 64)   36928       conv2d_3[0][0]                   
__________________________________________________________________________________________________
maximum_4 (Maximum)             (None, 27, 27, 64)   0           batch_normalization_8[0][0]      
                                                                 batch_normalization_9[0][0]      
__________________________________________________________________________________________________
conv2d_4 (Conv2D)               (None, 41, 41, 160)  108320      input_1[0][0]                    
__________________________________________________________________________________________________
conv2d_5 (Conv2D)               (None, 41, 41, 160)  108320      input_1[0][0]                    
__________________________________________________________________________________________________
batch_normalization_5 (BatchNor (None, 42, 42, 64)   256         conv2d_6[0][0]                   
__________________________________________________________________________________________________
batch_normalization_6 (BatchNor (None, 42, 42, 64)   256         conv2d_7[0][0]                   
__________________________________________________________________________________________________
conv2d_12 (Conv2D)              (None, 24, 24, 64)   65600       maximum_4[0][0]                  
__________________________________________________________________________________________________
batch_normalization_3 (BatchNor (None, 41, 41, 160)  640         conv2d_4[0][0]                   
__________________________________________________________________________________________________
batch_normalization_4 (BatchNor (None, 41, 41, 160)  640         conv2d_5[0][0]                   
__________________________________________________________________________________________________
maximum_3 (Maximum)             (None, 42, 42, 64)   0           batch_normalization_5[0][0]      
                                                                 batch_normalization_6[0][0]      
__________________________________________________________________________________________________
conv2d_15 (Conv2D)              (None, 22, 22, 64)   36928       conv2d_12[0][0]                  
__________________________________________________________________________________________________
conv2d_16 (Conv2D)              (None, 22, 22, 64)   36928       conv2d_12[0][0]                  
__________________________________________________________________________________________________
maximum_2 (Maximum)             (None, 41, 41, 160)  0           batch_normalization_3[0][0]      
                                                                 batch_normalization_4[0][0]      
__________________________________________________________________________________________________
conv2d_8 (Conv2D)               (None, 41, 41, 64)   16448       maximum_3[0][0]                  
__________________________________________________________________________________________________
conv2d_13 (Conv2D)              (None, 21, 21, 160)  108320      input_2[0][0]                    
__________________________________________________________________________________________________
conv2d_14 (Conv2D)              (None, 21, 21, 160)  108320      input_2[0][0]                    
__________________________________________________________________________________________________
batch_normalization_12 (BatchNo (None, 22, 22, 64)   256         conv2d_15[0][0]                  
__________________________________________________________________________________________________
batch_normalization_13 (BatchNo (None, 22, 22, 64)   256         conv2d_16[0][0]                  
__________________________________________________________________________________________________
concatenate_1 (Concatenate)     (None, 41, 41, 224)  0           maximum_2[0][0]                  
                                                                 conv2d_8[0][0]                   
__________________________________________________________________________________________________
batch_normalization_10 (BatchNo (None, 21, 21, 160)  640         conv2d_13[0][0]                  
__________________________________________________________________________________________________
batch_normalization_11 (BatchNo (None, 21, 21, 160)  640         conv2d_14[0][0]                  
__________________________________________________________________________________________________
maximum_6 (Maximum)             (None, 22, 22, 64)   0           batch_normalization_12[0][0]     
                                                                 batch_normalization_13[0][0]     
__________________________________________________________________________________________________
conv2d_9 (Conv2D)               (None, 21, 21, 5)    493925      concatenate_1[0][0]              
__________________________________________________________________________________________________
maximum_5 (Maximum)             (None, 21, 21, 160)  0           batch_normalization_10[0][0]     
                                                                 batch_normalization_11[0][0]     
__________________________________________________________________________________________________
conv2d_17 (Conv2D)              (None, 21, 21, 64)   16448       maximum_6[0][0]                  
__________________________________________________________________________________________________
batch_normalization_7 (BatchNor (None, 21, 21, 5)    20          conv2d_9[0][0]                   
__________________________________________________________________________________________________
concatenate_2 (Concatenate)     (None, 21, 21, 224)  0           maximum_5[0][0]                  
                                                                 conv2d_17[0][0]                  
__________________________________________________________________________________________________
concatenate_3 (Concatenate)     (None, 21, 21, 229)  0           batch_normalization_7[0][0]      
                                                                 concatenate_2[0][0]              
__________________________________________________________________________________________________
conv2d_18 (Conv2D)              (None, 1, 1, 5)      504950      concatenate_3[0][0]              
__________________________________________________________________________________________________
batch_normalization_14 (BatchNo (None, 1, 1, 5)      20          conv2d_18[0][0]                  
__________________________________________________________________________________________________
activation_1 (Activation)       (None, 1, 1, 5)      0           batch_normalization_14[0][0]     
==================================================================================================
Total params: 1,799,043
Trainable params: 1,796,719
Non-trainable params: 2,324
__________________________________________________________________________________________________
In [41]:
m1 = input_cascade((65,65,4),(33,33,4))
m1.summary()
__________________________________________________________________________________________________
Layer (type)                    Output Shape         Param #     Connected to                     
==================================================================================================
input_3 (InputLayer)            (None, 65, 65, 4)    0                                            
__________________________________________________________________________________________________
conv2d_19 (Conv2D)              (None, 59, 59, 64)   12608       input_3[0][0]                    
__________________________________________________________________________________________________
conv2d_20 (Conv2D)              (None, 59, 59, 64)   12608       input_3[0][0]                    
__________________________________________________________________________________________________
batch_normalization_15 (BatchNo (None, 59, 59, 64)   256         conv2d_19[0][0]                  
__________________________________________________________________________________________________
batch_normalization_16 (BatchNo (None, 59, 59, 64)   256         conv2d_20[0][0]                  
__________________________________________________________________________________________________
maximum_7 (Maximum)             (None, 59, 59, 64)   0           batch_normalization_15[0][0]     
                                                                 batch_normalization_16[0][0]     
__________________________________________________________________________________________________
conv2d_21 (Conv2D)              (None, 56, 56, 64)   65600       maximum_7[0][0]                  
__________________________________________________________________________________________________
conv2d_24 (Conv2D)              (None, 54, 54, 64)   36928       conv2d_21[0][0]                  
__________________________________________________________________________________________________
conv2d_25 (Conv2D)              (None, 54, 54, 64)   36928       conv2d_21[0][0]                  
__________________________________________________________________________________________________
conv2d_22 (Conv2D)              (None, 53, 53, 160)  108320      input_3[0][0]                    
__________________________________________________________________________________________________
conv2d_23 (Conv2D)              (None, 53, 53, 160)  108320      input_3[0][0]                    
__________________________________________________________________________________________________
batch_normalization_19 (BatchNo (None, 54, 54, 64)   256         conv2d_24[0][0]                  
__________________________________________________________________________________________________
batch_normalization_20 (BatchNo (None, 54, 54, 64)   256         conv2d_25[0][0]                  
__________________________________________________________________________________________________
batch_normalization_17 (BatchNo (None, 53, 53, 160)  640         conv2d_22[0][0]                  
__________________________________________________________________________________________________
batch_normalization_18 (BatchNo (None, 53, 53, 160)  640         conv2d_23[0][0]                  
__________________________________________________________________________________________________
maximum_9 (Maximum)             (None, 54, 54, 64)   0           batch_normalization_19[0][0]     
                                                                 batch_normalization_20[0][0]     
__________________________________________________________________________________________________
maximum_8 (Maximum)             (None, 53, 53, 160)  0           batch_normalization_17[0][0]     
                                                                 batch_normalization_18[0][0]     
__________________________________________________________________________________________________
conv2d_26 (Conv2D)              (None, 53, 53, 64)   16448       maximum_9[0][0]                  
__________________________________________________________________________________________________
concatenate_4 (Concatenate)     (None, 53, 53, 224)  0           maximum_8[0][0]                  
                                                                 conv2d_26[0][0]                  
__________________________________________________________________________________________________
conv2d_27 (Conv2D)              (None, 33, 33, 5)    493925      concatenate_4[0][0]              
__________________________________________________________________________________________________
batch_normalization_21 (BatchNo (None, 33, 33, 5)    20          conv2d_27[0][0]                  
__________________________________________________________________________________________________
input_4 (InputLayer)            (None, 33, 33, 4)    0                                            
__________________________________________________________________________________________________
concatenate_5 (Concatenate)     (None, 33, 33, 9)    0           batch_normalization_21[0][0]     
                                                                 input_4[0][0]                    
__________________________________________________________________________________________________
conv2d_28 (Conv2D)              (None, 27, 27, 64)   28288       concatenate_5[0][0]              
__________________________________________________________________________________________________
conv2d_29 (Conv2D)              (None, 27, 27, 64)   28288       concatenate_5[0][0]              
__________________________________________________________________________________________________
batch_normalization_22 (BatchNo (None, 27, 27, 64)   256         conv2d_28[0][0]                  
__________________________________________________________________________________________________
batch_normalization_23 (BatchNo (None, 27, 27, 64)   256         conv2d_29[0][0]                  
__________________________________________________________________________________________________
maximum_10 (Maximum)            (None, 27, 27, 64)   0           batch_normalization_22[0][0]     
                                                                 batch_normalization_23[0][0]     
__________________________________________________________________________________________________
conv2d_30 (Conv2D)              (None, 24, 24, 64)   65600       maximum_10[0][0]                 
__________________________________________________________________________________________________
conv2d_33 (Conv2D)              (None, 22, 22, 64)   36928       conv2d_30[0][0]                  
__________________________________________________________________________________________________
conv2d_34 (Conv2D)              (None, 22, 22, 64)   36928       conv2d_30[0][0]                  
__________________________________________________________________________________________________
conv2d_31 (Conv2D)              (None, 21, 21, 160)  243520      concatenate_5[0][0]              
__________________________________________________________________________________________________
conv2d_32 (Conv2D)              (None, 21, 21, 160)  243520      concatenate_5[0][0]              
__________________________________________________________________________________________________
batch_normalization_26 (BatchNo (None, 22, 22, 64)   256         conv2d_33[0][0]                  
__________________________________________________________________________________________________
batch_normalization_27 (BatchNo (None, 22, 22, 64)   256         conv2d_34[0][0]                  
__________________________________________________________________________________________________
batch_normalization_24 (BatchNo (None, 21, 21, 160)  640         conv2d_31[0][0]                  
__________________________________________________________________________________________________
batch_normalization_25 (BatchNo (None, 21, 21, 160)  640         conv2d_32[0][0]                  
__________________________________________________________________________________________________
maximum_12 (Maximum)            (None, 22, 22, 64)   0           batch_normalization_26[0][0]     
                                                                 batch_normalization_27[0][0]     
__________________________________________________________________________________________________
maximum_11 (Maximum)            (None, 21, 21, 160)  0           batch_normalization_24[0][0]     
                                                                 batch_normalization_25[0][0]     
__________________________________________________________________________________________________
conv2d_35 (Conv2D)              (None, 21, 21, 64)   16448       maximum_12[0][0]                 
__________________________________________________________________________________________________
concatenate_6 (Concatenate)     (None, 21, 21, 224)  0           maximum_11[0][0]                 
                                                                 conv2d_35[0][0]                  
__________________________________________________________________________________________________
conv2d_36 (Conv2D)              (None, 1, 1, 5)      493925      concatenate_6[0][0]              
__________________________________________________________________________________________________
batch_normalization_28 (BatchNo (None, 1, 1, 5)      20          conv2d_36[0][0]                  
__________________________________________________________________________________________________
activation_2 (Activation)       (None, 1, 1, 5)      0           batch_normalization_28[0][0]     
==================================================================================================
Total params: 2,089,778
Trainable params: 2,087,454
Non-trainable params: 2,324
__________________________________________________________________________________________________
Training the architectures

In [10]:
from sklearn.utils import class_weight
In [0]:
…
